…
I0910 04:04:14.462301  7464 solver.cpp:96] Creating training net from net file: examples/cifar10/triplet_loss/cifar10_quick_train_test.prototxt
I0910 04:04:14.462698  7464 net.cpp:339] The NetState phase (0) differed from the phase (1) specified by a rule in layer cifar
I0910 04:04:14.462815  7464 net.cpp:50] Initializing net from parameters: 
name: "CIFAR10_quick"
state {
  phase: TRAIN
}
layer {
  name: "cifar"
  type: "Data"
  top: "data"
  top: "label"
  include {
    phase: TRAIN
  }
  transform_param {
    mean_file: "examples/cifar10/mean.binaryproto"
  }
  data_param {
    source: "examples/cifar10/cifar10_train_lmdb"
    batch_size: 500
    backend: LMDB
  }
}
layer {
  name: "conv1"
  type: "Convolution"
  bottom: "data"
  top: "conv1"
  param {
    lr_mult: 1
  }
  param {
    lr_mult: 2
  }
  convolution_param {
    num_output: 32
    pad: 2
    kernel_size: 5
    stride: 1
    weight_filler {
      type: "gaussian"
      std: 0.0001
    }
    bias_filler {
      type: "constant"
    }
  }
}
layer {
  name: "pool1"
  type: "Pooling"
  bottom: "conv1"
  top: "pool1"
  pooling_param {
    pool: MAX
    kernel_size: 3
    stride: 2
  }
}
layer {
  name: "relu1"
  type: "ReLU"
  bottom: "pool1"
  top: "pool1"
}
layer {
  name: "conv2"
  type: "Convolution"
  bottom: "pool1"
  top: "conv2"
  param {
    lr_mult: 1
  }
  param {
    lr_mult: 2
  }
  convolution_param {
    num_output: 32
    pad: 2
    kernel_size: 5
    stride: 1
    weight_filler {
      type: "gaussian"
      std: 0.01
    }
    bias_filler {
      type: "constant"
    }
  }
}
layer {
  name: "relu2"
  type: "ReLU"
  bottom: "conv2"
  top: "conv2"
}
layer {
  name: "pool2"
  type: "Pooling"
  bottom: "conv2"
  top: "pool2"
  pooling_param {
    pool: AVE
    kernel_size: 3
    stride: 2
  }
}
layer {
  name: "conv3"
  type: "Convolution"
  bottom: "pool2"
  top: "conv3"
  param {
    lr_mult: 1
  }
  param {
    lr_mult: 2
  }
  convolution_param {
    num_output: 64
    pad: 2
    kernel_size: 5
    stride: 1
    weight_filler {
      type: "gaussian"
      std: 0.01
    }
    bias_filler {
      type: "constant"
    }
  }
}
layer {
  name: "relu3"
  type: "ReLU"
  bottom: "conv3"
  top: "conv3"
}
layer {
  name: "pool3"
  type: "Pooling"
  bottom: "conv3"
  top: "pool3"
  pooling_param {
    pool: AVE
    kernel_size: 3
    stride: 2
  }
}
layer {
  name: "ip1"
  type: "InnerProduct"
  bottom: "pool3"
  top: "ip1"
  param {
    lr_mult: 1
  }
  param {
    lr_mult: 2
  }
  inner_product_param {
    num_output: 64
    weight_filler {
      type: "gaussian"
      std: 0.1
    }
    bias_filler {
      type: "constant"
    }
  }
}
layer {
  name: "sampling"
  type: "TripletSampling"
  bottom: "ip1"
  bottom: "label"
  top: "anchor"
  top: "positive"
  top: "negative"
  triplet_loss_param {
    margin: 0.1
  }
}
layer {
  name: "loss"
  type: "TripletLoss"
  bottom: "anchor"
  bottom: "positive"
  bottom: "negative"
  top: "loss"
}
I0910 04:04:14.462905  7464 layer_factory.hpp:76] Creating layer cifar
I0910 04:04:14.463685  7464 net.cpp:110] Creating Layer cifar
I0910 04:04:14.463711  7464 net.cpp:433] cifar -> data
I0910 04:04:14.463826  7464 net.cpp:433] cifar -> label
I0910 04:04:14.463865  7464 data_transformer.cpp:23] Loading mean file from: examples/cifar10/mean.binaryproto
I0910 04:04:14.491118  7467 db_lmdb.cpp:22] Opened lmdb examples/cifar10/cifar10_train_lmdb
I0910 04:04:14.503967  7464 data_layer.cpp:44] output data size: 500,3,32,32
I0910 04:04:14.516101  7464 net.cpp:155] Setting up cifar
I0910 04:04:14.516149  7464 net.cpp:163] Top shape: 500 3 32 32 (1536000)
I0910 04:04:14.516155  7464 net.cpp:163] Top shape: 500 (500)
I0910 04:04:14.516165  7464 layer_factory.hpp:76] Creating layer conv1
I0910 04:04:14.516187  7464 net.cpp:110] Creating Layer conv1
I0910 04:04:14.516197  7464 net.cpp:477] conv1 <- data
I0910 04:04:14.516214  7464 net.cpp:433] conv1 -> conv1
I0910 04:04:14.517000  7464 net.cpp:155] Setting up conv1
I0910 04:04:14.517016  7464 net.cpp:163] Top shape: 500 32 32 32 (16384000)
I0910 04:04:14.517037  7464 layer_factory.hpp:76] Creating layer pool1
I0910 04:04:14.517058  7464 net.cpp:110] Creating Layer pool1
I0910 04:04:14.517062  7464 net.cpp:477] pool1 <- conv1
I0910 04:04:14.517068  7464 net.cpp:433] pool1 -> pool1
I0910 04:04:14.517091  7464 net.cpp:155] Setting up pool1
I0910 04:04:14.517107  7464 net.cpp:163] Top shape: 500 32 16 16 (4096000)
I0910 04:04:14.517110  7464 layer_factory.hpp:76] Creating layer relu1
I0910 04:04:14.517119  7464 net.cpp:110] Creating Layer relu1
I0910 04:04:14.517123  7464 net.cpp:477] relu1 <- pool1
I0910 04:04:14.517128  7464 net.cpp:419] relu1 -> pool1 (in-place)
I0910 04:04:14.517137  7464 net.cpp:155] Setting up relu1
I0910 04:04:14.517141  7464 net.cpp:163] Top shape: 500 32 16 16 (4096000)
I0910 04:04:14.517144  7464 layer_factory.hpp:76] Creating layer conv2
I0910 04:04:14.517154  7464 net.cpp:110] Creating Layer conv2
I0910 04:04:14.517158  7464 net.cpp:477] conv2 <- pool1
I0910 04:04:14.517163  7464 net.cpp:433] conv2 -> conv2
I0910 04:04:14.519145  7464 net.cpp:155] Setting up conv2
I0910 04:04:14.519161  7464 net.cpp:163] Top shape: 500 32 16 16 (4096000)
I0910 04:04:14.519171  7464 layer_factory.hpp:76] Creating layer relu2
I0910 04:04:14.519179  7464 net.cpp:110] Creating Layer relu2
I0910 04:04:14.519183  7464 net.cpp:477] relu2 <- conv2
I0910 04:04:14.519191  7464 net.cpp:419] relu2 -> conv2 (in-place)
I0910 04:04:14.519198  7464 net.cpp:155] Setting up relu2
I0910 04:04:14.519202  7464 net.cpp:163] Top shape: 500 32 16 16 (4096000)
I0910 04:04:14.519207  7464 layer_factory.hpp:76] Creating layer pool2
I0910 04:04:14.519212  7464 net.cpp:110] Creating Layer pool2
I0910 04:04:14.519217  7464 net.cpp:477] pool2 <- conv2
I0910 04:04:14.519225  7464 net.cpp:433] pool2 -> pool2
I0910 04:04:14.519233  7464 net.cpp:155] Setting up pool2
I0910 04:04:14.519238  7464 net.cpp:163] Top shape: 500 32 8 8 (1024000)
I0910 04:04:14.519242  7464 layer_factory.hpp:76] Creating layer conv3
I0910 04:04:14.519248  7464 net.cpp:110] Creating Layer conv3
I0910 04:04:14.519251  7464 net.cpp:477] conv3 <- pool2
I0910 04:04:14.519258  7464 net.cpp:433] conv3 -> conv3
I0910 04:04:14.520885  7464 net.cpp:155] Setting up conv3
I0910 04:04:14.520907  7464 net.cpp:163] Top shape: 500 64 8 8 (2048000)
I0910 04:04:14.520916  7464 layer_factory.hpp:76] Creating layer relu3
I0910 04:04:14.520925  7464 net.cpp:110] Creating Layer relu3
I0910 04:04:14.520927  7464 net.cpp:477] relu3 <- conv3
I0910 04:04:14.520932  7464 net.cpp:419] relu3 -> conv3 (in-place)
I0910 04:04:14.520938  7464 net.cpp:155] Setting up relu3
I0910 04:04:14.520942  7464 net.cpp:163] Top shape: 500 64 8 8 (2048000)
I0910 04:04:14.520946  7464 layer_factory.hpp:76] Creating layer pool3
I0910 04:04:14.520953  7464 net.cpp:110] Creating Layer pool3
I0910 04:04:14.520957  7464 net.cpp:477] pool3 <- conv3
I0910 04:04:14.520964  7464 net.cpp:433] pool3 -> pool3
I0910 04:04:14.520972  7464 net.cpp:155] Setting up pool3
I0910 04:04:14.520977  7464 net.cpp:163] Top shape: 500 64 4 4 (512000)
I0910 04:04:14.520980  7464 layer_factory.hpp:76] Creating layer ip1
I0910 04:04:14.520992  7464 net.cpp:110] Creating Layer ip1
I0910 04:04:14.520995  7464 net.cpp:477] ip1 <- pool3
I0910 04:04:14.521001  7464 net.cpp:433] ip1 -> ip1
I0910 04:04:14.523056  7464 net.cpp:155] Setting up ip1
I0910 04:04:14.523073  7464 net.cpp:163] Top shape: 500 64 (32000)
I0910 04:04:14.523080  7464 layer_factory.hpp:76] Creating layer sampling
I0910 04:04:14.523092  7464 net.cpp:110] Creating Layer sampling
I0910 04:04:14.523097  7464 net.cpp:477] sampling <- ip1
I0910 04:04:14.523102  7464 net.cpp:477] sampling <- label
I0910 04:04:14.523108  7464 net.cpp:433] sampling -> anchor
I0910 04:04:14.523115  7464 net.cpp:433] sampling -> positive
I0910 04:04:14.523121  7464 net.cpp:433] sampling -> negative
I0910 04:04:14.523134  7464 net.cpp:155] Setting up sampling
I0910 04:04:14.523138  7464 net.cpp:163] Top shape: 500 64 1 1 (32000)
I0910 04:04:14.523144  7464 net.cpp:163] Top shape: 500 64 1 1 (32000)
I0910 04:04:14.523146  7464 net.cpp:163] Top shape: 500 64 1 1 (32000)
I0910 04:04:14.523150  7464 layer_factory.hpp:76] Creating layer loss
I0910 04:04:14.523159  7464 net.cpp:110] Creating Layer loss
I0910 04:04:14.523161  7464 net.cpp:477] loss <- anchor
I0910 04:04:14.523166  7464 net.cpp:477] loss <- positive
I0910 04:04:14.523169  7464 net.cpp:477] loss <- negative
I0910 04:04:14.523176  7464 net.cpp:433] loss -> loss
I0910 04:04:14.523242  7464 net.cpp:155] Setting up loss
…
I0910 04:04:14.523710  7464 solver.cpp:186] Creating test net (#0) specified by net file: examples/cifar10/triplet_loss/cifar10_quick_train_test.prototxt
I0910 04:04:14.523741  7464 net.cpp:339] The NetState phase (1) differed from the phase (0) specified by a rule in layer cifar
I0910 04:04:14.523854  7464 net.cpp:50] Initializing net from parameters: 
name: "CIFAR10_quick"
state {
  phase: TEST
}
layer {
  name: "cifar"
  type: "Data"
  top: "data"
  top: "label"
  include {
    phase: TEST
  }
  transform_param {
    mean_file: "examples/cifar10/mean.binaryproto"
  }
  data_param {
    source: "examples/cifar10/cifar10_test_lmdb"
    batch_size: 1
    backend: LMDB
  }
}
layer {
  name: "conv1"
  type: "Convolution"
  bottom: "data"
  top: "conv1"
  param {
    lr_mult: 1
  }
  param {
    lr_mult: 2
  }
  convolution_param {
    num_output: 32
    pad: 2
    kernel_size: 5
    stride: 1
    weight_filler {
      type: "gaussian"
      std: 0.0001
    }
    bias_filler {
      type: "constant"
    }
  }
}
layer {
  name: "pool1"
  type: "Pooling"
  bottom: "conv1"
  top: "pool1"
  pooling_param {
    pool: MAX
    kernel_size: 3
    stride: 2
  }
}
layer {
  name: "relu1"
  type: "ReLU"
  bottom: "pool1"
  top: "pool1"
}
layer {
  name: "conv2"
  type: "Convolution"
  bottom: "pool1"
  top: "conv2"
  param {
    lr_mult: 1
  }
  param {
    lr_mult: 2
  }
  convolution_param {
    num_output: 32
    pad: 2
    kernel_size: 5
    stride: 1
    weight_filler {
      type: "gaussian"
      std: 0.01
    }
    bias_filler {
      type: "constant"
    }
  }
}
layer {
  name: "relu2"
  type: "ReLU"
  bottom: "conv2"
  top: "conv2"
}
layer {
  name: "pool2"
  type: "Pooling"
  bottom: "conv2"
  top: "pool2"
  pooling_param {
    pool: AVE
    kernel_size: 3
    stride: 2
  }
}
layer {
  name: "conv3"
  type: "Convolution"
  bottom: "pool2"
  top: "conv3"
  param {
    lr_mult: 1
  }
  param {
    lr_mult: 2
  }
  convolution_param {
    num_output: 64
    pad: 2
    kernel_size: 5
    stride: 1
    weight_filler {
      type: "gaussian"
      std: 0.01
    }
    bias_filler {
      type: "constant"
    }
  }
}
layer {
  name: "relu3"
  type: "ReLU"
  bottom: "conv3"
  top: "conv3"
}
layer {
  name: "pool3"
  type: "Pooling"
  bottom: "conv3"
  top: "pool3"
  pooling_param {
    pool: AVE
    kernel_size: 3
    stride: 2
  }
}
layer {
  name: "ip1"
  type: "InnerProduct"
  bottom: "pool3"
  top: "ip1"
  param {
    lr_mult: 1
  }
  param {
    lr_mult: 2
  }
  inner_product_param {
    num_output: 64
    weight_filler {
      type: "gaussian"
      std: 0.1
    }
    bias_filler {
      type: "constant"
    }
  }
}
layer {
  name: "sampling"
  type: "TripletSampling"
  bottom: "ip1"
  bottom: "label"
  top: "anchor"
  top: "positive"
  top: "negative"
  triplet_loss_param {
    margin: 0.1
  }
}
layer {
  name: "loss"
  type: "TripletLoss"
  bottom: "anchor"
  bottom: "positive"
  bottom: "negative"
  top: "loss"
}
I0910 04:04:14.523921  7464 layer_factory.hpp:76] Creating layer cifar
I0910 04:04:14.524005  7464 net.cpp:110] Creating Layer cifar
I0910 04:04:14.524016  7464 net.cpp:433] cifar -> data
I0910 04:04:14.524026  7464 net.cpp:433] cifar -> label
I0910 04:04:14.524039  7464 data_transformer.cpp:23] Loading mean file from: examples/cifar10/mean.binaryproto
I0910 04:04:14.553899  7469 db_lmdb.cpp:22] Opened lmdb examples/cifar10/cifar10_test_lmdb
I0910 04:04:14.561065  7464 data_layer.cpp:44] output data size: 1,3,32,32
I0910 04:04:14.561360  7464 net.cpp:155] Setting up cifar
I0910 04:04:14.561380  7464 net.cpp:163] Top shape: 1 3 32 32 (3072)
I0910 04:04:14.561386  7464 net.cpp:163] Top shape: 1 (1)
I0910 04:04:14.561394  7464 layer_factory.hpp:76] Creating layer conv1
I0910 04:04:14.561414  7464 net.cpp:110] Creating Layer conv1
I0910 04:04:14.561419  7464 net.cpp:477] conv1 <- data
I0910 04:04:14.561427  7464 net.cpp:433] conv1 -> conv1
I0910 04:04:14.561667  7464 net.cpp:155] Setting up conv1
I0910 04:04:14.561684  7464 net.cpp:163] Top shape: 1 32 32 32 (32768)
I0910 04:04:14.561697  7464 layer_factory.hpp:76] Creating layer pool1
I0910 04:04:14.561707  7464 net.cpp:110] Creating Layer pool1
I0910 04:04:14.561710  7464 net.cpp:477] pool1 <- conv1
I0910 04:04:14.561718  7464 net.cpp:433] pool1 -> pool1
I0910 04:04:14.561729  7464 net.cpp:155] Setting up pool1
I0910 04:04:14.561734  7464 net.cpp:163] Top shape: 1 32 16 16 (8192)
I0910 04:04:14.561738  7464 layer_factory.hpp:76] Creating layer relu1
I0910 04:04:14.561744  7464 net.cpp:110] Creating Layer relu1
I0910 04:04:14.561748  7464 net.cpp:477] relu1 <- pool1
I0910 04:04:14.561753  7464 net.cpp:419] relu1 -> pool1 (in-place)
I0910 04:04:14.561758  7464 net.cpp:155] Setting up relu1
I0910 04:04:14.561763  7464 net.cpp:163] Top shape: 1 32 16 16 (8192)
I0910 04:04:14.561765  7464 layer_factory.hpp:76] Creating layer conv2
I0910 04:04:14.561774  7464 net.cpp:110] Creating Layer conv2
I0910 04:04:14.561776  7464 net.cpp:477] conv2 <- pool1
I0910 04:04:14.561784  7464 net.cpp:433] conv2 -> conv2
I0910 04:04:14.562644  7464 net.cpp:155] Setting up conv2
I0910 04:04:14.562660  7464 net.cpp:163] Top shape: 1 32 16 16 (8192)
I0910 04:04:14.562669  7464 layer_factory.hpp:76] Creating layer relu2
I0910 04:04:14.562675  7464 net.cpp:110] Creating Layer relu2
I0910 04:04:14.562680  7464 net.cpp:477] relu2 <- conv2
I0910 04:04:14.562685  7464 net.cpp:419] relu2 -> conv2 (in-place)
I0910 04:04:14.562690  7464 net.cpp:155] Setting up relu2
I0910 04:04:14.562695  7464 net.cpp:163] Top shape: 1 32 16 16 (8192)
I0910 04:04:14.562698  7464 layer_factory.hpp:76] Creating layer pool2
I0910 04:04:14.562703  7464 net.cpp:110] Creating Layer pool2
I0910 04:04:14.562707  7464 net.cpp:477] pool2 <- conv2
I0910 04:04:14.562715  7464 net.cpp:433] pool2 -> pool2
I0910 04:04:14.562721  7464 net.cpp:155] Setting up pool2
I0910 04:04:14.562726  7464 net.cpp:163] Top shape: 1 32 8 8 (2048)
I0910 04:04:14.562729  7464 layer_factory.hpp:76] Creating layer conv3
I0910 04:04:14.562736  7464 net.cpp:110] Creating Layer conv3
I0910 04:04:14.562739  7464 net.cpp:477] conv3 <- pool2
I0910 04:04:14.562747  7464 net.cpp:433] conv3 -> conv3
I0910 04:04:14.564388  7464 net.cpp:155] Setting up conv3
I0910 04:04:14.564405  7464 net.cpp:163] Top shape: 1 64 8 8 (4096)
I0910 04:04:14.564415  7464 layer_factory.hpp:76] Creating layer relu3
I0910 04:04:14.564429  7464 net.cpp:110] Creating Layer relu3
I0910 04:04:14.564432  7464 net.cpp:477] relu3 <- conv3
I0910 04:04:14.564437  7464 net.cpp:419] relu3 -> conv3 (in-place)
I0910 04:04:14.564443  7464 net.cpp:155] Setting up relu3
I0910 04:04:14.564448  7464 net.cpp:163] Top shape: 1 64 8 8 (4096)
I0910 04:04:14.564451  7464 layer_factory.hpp:76] Creating layer pool3
I0910 04:04:14.564456  7464 net.cpp:110] Creating Layer pool3
I0910 04:04:14.564460  7464 net.cpp:477] pool3 <- conv3
I0910 04:04:14.564465  7464 net.cpp:433] pool3 -> pool3
I0910 04:04:14.564471  7464 net.cpp:155] Setting up pool3
I0910 04:04:14.564476  7464 net.cpp:163] Top shape: 1 64 4 4 (1024)
I0910 04:04:14.564479  7464 layer_factory.hpp:76] Creating layer ip1
I0910 04:04:14.564486  7464 net.cpp:110] Creating Layer ip1
I0910 04:04:14.564489  7464 net.cpp:477] ip1 <- pool3
I0910 04:04:14.564497  7464 net.cpp:433] ip1 -> ip1
I0910 04:04:14.567160  7464 net.cpp:155] Setting up ip1
I0910 04:04:14.567178  7464 net.cpp:163] Top shape: 1 64 (64)
I0910 04:04:14.567186  7464 layer_factory.hpp:76] Creating layer sampling
I0910 04:04:14.567198  7464 net.cpp:110] Creating Layer sampling
I0910 04:04:14.567200  7464 net.cpp:477] sampling <- ip1
I0910 04:04:14.567205  7464 net.cpp:477] sampling <- label
I0910 04:04:14.567210  7464 net.cpp:433] sampling -> anchor
I0910 04:04:14.567217  7464 net.cpp:433] sampling -> positive
I0910 04:04:14.567224  7464 net.cpp:433] sampling -> negative
I0910 04:04:14.567232  7464 net.cpp:155] Setting up sampling
I0910 04:04:14.567237  7464 net.cpp:163] Top shape: 1 64 1 1 (64)
I0910 04:04:14.567241  7464 net.cpp:163] Top shape: 1 64 1 1 (64)
I0910 04:04:14.567245  7464 net.cpp:163] Top shape: 1 64 1 1 (64)
I0910 04:04:14.567248  7464 layer_factory.hpp:76] Creating layer loss
I0910 04:04:14.567256  7464 net.cpp:110] Creating Layer loss
I0910 04:04:14.567260  7464 net.cpp:477] loss <- anchor
I0910 04:04:14.567265  7464 net.cpp:477] loss <- positive
I0910 04:04:14.567268  7464 net.cpp:477] loss <- negative
I0910 04:04:14.567272  7464 net.cpp:433] loss -> loss
I0910 04:04:14.567333  7464 net.cpp:155] Setting up loss
…
